…
 of tensor.storage()\n",
+      "  action_fn=lambda data: sys.getsizeof(data.storage()),\n"
      ]
+    },
+    {
+     "data": {
+      "text/plain": [
+       "===================================================================================================================\n",
+       "Layer (type:depth-idx)                                            Output Shape              Param #\n",
+       "===================================================================================================================\n",
+       "EfficientViTSeg                                                   [1, 2, 64, 64]            --\n",
+       "EfficientViTBackbone: 1-1                                       [1, 128, 16, 16]          --\n",
+       "    OpSequential: 2-1                                          [1, 8, 256, 256]          --\n",
+       "        ModuleList: 3-1                                       --                        400\n",
+       "    ModuleList: 2-2                                            --                        --\n",
+       "        OpSequential: 3-2                                     [1, 16, 128, 128]         4,128\n",
+       "        OpSequential: 3-3                                     [1, 32, 64, 64]           13,888\n",
+       "        OpSequential: 3-4                                     [1, 64, 32, 32]           142,208\n",
+       "        OpSequential: 3-5                                     [1, 128, 16, 16]          521,984\n",
+       "SegHead: 1-2                                                    [1, 2, 64, 64]            --\n",
+       "    ModuleList: 2-3                                            --                        --\n",
+       "        OpSequential: 3-6                                     [1, 32, 64, 64]           4,160\n",
+       "        OpSequential: 3-7                                     [1, 32, 64, 64]           2,112\n",
+       "        ConvLayer: 3-8                                        [1, 32, 64, 64]           1,088\n",
+       "    OpSequential: 2-4                                          [1, 32, 64, 64]           --\n",
+       "        ModuleList: 3-9                                       --                        9,920\n",
+       "    ModuleList: 2-5                                            --                        --\n",
+       "        OpSequential: 3-10                                    [1, 2, 64, 64]            4,610\n",
+       "SegHead: 1-3                                                    [1, 2, 64, 64]            --\n",
+       "    ModuleList: 2-6                                            --                        --\n",
+       "        OpSequential: 3-11                                    [1, 32, 64, 64]           4,160\n",
+       "        OpSequential: 3-12                                    [1, 32, 64, 64]           2,112\n",
+       "        ConvLayer: 3-13                                       [1, 32, 64, 64]           1,088\n",
+       "    OpSequential: 2-7                                          [1, 32, 64, 64]           --\n",
+       "        ModuleList: 3-14                                      --                        9,920\n",
+       "    ModuleList: 2-8                                            --                        --\n",
+       "        OpSequential: 3-15                                    [1, 2, 64, 64]            4,610\n",
+       "===================================================================================================================\n",
+       "Total params: 726,388\n",
+       "Trainable params: 726,388\n",
+       "Non-trainable params: 0\n",
+       "Total mult-adds (M): 592.66\n",
+       "===================================================================================================================\n",
…
